src/models/gesture_model.tflite (tflite, 342612 bytes, 8 tensors)

sequential_2/dense_10/BiasAdd/ReadVariableOp/resource f4 [75]
000000 e1 9c 65 3d cd 04 26 bd 7e d7 5a 3d 05 0f fa bb
       0.056057815 -0.040531922 0.053428166 -0.007631185
000010 96 92 d9 ba 1d 04 95 bd fd 38 c4 3d e8 d3 54 3d
       -0.0016599472 -0.07276175 0.09581182 0.051959902
000020 7e ad 88 3c 02 21 c2 3d 82 57 c5 3b 8c b6 11 3b
       0.01668429 0.09478952 0.0060223946 0.002223405
000030 b4 09 04 bd 7c b7 93 3d 36 5f aa 3d e1 e7 75 3d
       -0.032235816 0.07212731 0.08318941 0.06003559
000040 7f a3 ef 3b d4 cb b7 3c 45 a7 a3 3c 33 ca 7d 3d
       0.0073131914 0.02243606 0.019977221 0.06196041
000050 73 4a 5c bd 71 6a af 3c 61 aa e6 3c dc 26 91 3d
       -0.053781938 0.02141306 0.028157415 0.0708749
000060 c7 41 21 bd 96 8d 95 3d 3f e9 fa 3c a2 f4 84 3d
       -0.03936937 0.07302396 0.030628799 0.064919725
000070 42 81 33 3d f9 37 71 3d 51 d2 36 bd 78 4b da 3c
       0.04382444 0.05889127 -0.044634167 0.026647314
000080 ad 3a 16 be a8 67 52 3d 36 d2 c5 3c 32 c5 53 3d
       -0.1467082 0.051368386 0.024148088 0.051701732
000090 2e dc 18 3d d1 05 03 bd 0a de 7d 3c ac 6b 5e 3d
       0.037319355 -0.03198797 0.015494833 0.054301903
0000a0 84 c3 5a 3d bd 2a 25 3d 0e 0f 2a 3d c9 93 2d be
       0.053409114 0.04032396 0.041518264 -0.16950907
0000b0 f7 c4 a7 3d 52 1b 78 3d ed 44 12 bd 23 f5 21 3d
       0.08191865 0.06057293 -0.035710264 0.03954042
0000c0 d4 1e 8a 3d 82 6d 9e 3c a8 71 e4 3c 8e 35 16 3d
       0.06744161 0.019339327 0.027886227 0.036672167
0000d0 48 5a 85 bc 1a b5 8e 3d 7b ec e8 bd 55 ac f2 3c
       -0.016278401 0.06968136 -0.1137323 0.02962319
0000e0 7e a0 c1 3d da 30 3f 3b 0c 01 49 3d a0 08 46 3d
       0.094544396 0.0029173405 0.049073264 0.04834807
0000f0 b3 e2 85 3d 79 29 6c 3d 20 52 f2 bc 84 04 ca 3d
       0.0653738 0.05765674 -0.029580176 0.098641425
000100 0b 70 c5 3d 24 94 b0 3c e9 04 97 bc 79 f5 f5 bc
       0.09640511 0.021555014 -0.018434959 -0.030024277
000110 45 b6 7d 3d 39 23 be 3d 46 30 cc 3c da a2 63 3d
       0.061941404 0.09284062 0.024925362 0.05557523
000120 97 8e 94 3d 51 69 94 bc 5d d0 98 3c
       0.07253759 -0.018116625 0.018654043

sequential_2/dense_11/BiasAdd/ReadVariableOp/resource f4 [5]
000000 66 d1 e8 bc 75 09 77 bc 29 45 8a bc 98 98 28 39
       -0.028420161 -0.015077938 -0.016878681 0.00016078574
000010 49 c1 5e bc
       -0.013595887

sequential_2/dense_8/BiasAdd/ReadVariableOp/resource f4 [100]
000000 00 00 00 00 0a bf 3c bb 12 38 58 bb 8b f2 d2 3b
       0.0 -0.0028800392 -0.0032992405 0.006437605
000010 4c ed 36 bb c6 5f 32 ba d5 a3 45 ba be c5 e5 bb
       -0.0027912436 -0.00068044325 -0.00075393665 -0.007012098
000020 96 70 1c ba 53 b1 cc 3b 00 00 00 00 5e 72 23 ba
       -0.00059677043 0.0062467246 0.0 -0.00062349986
000030 36 e4 b7 3b 00 00 00 00 00 00 00 00 30 f7 98 ba
       0.0056119217 0.0 0.0 -0.0011670347
000040 00 00 00 00 36 dd 3f bc 00 00 00 00 00 00 00 00
       0.0 -0.011710456 0.0 0.0
000050 00 00 00 00 c6 74 05 ba c1 1e 2a ba 7a a4 1f ba
       0.0 -0.0005090948 -0.0006489568 -0.00060898776
000060 00 00 00 00 00 00 00 00 00 00 00 00 00 00 00 00
       0.0 0.0 0.0 0.0
000070 00 00 00 00 00 00 00 00 d1 2c 2c bb 00 00 00 00
       0.0 0.0 -0.002627183 0.0
000080 00 00 00 00 b7 84 3d bc 00 00 00 00 14 39 46 ba
       0.0 -0.011567286 0.0 -0.0007561606
000090 3b a7 d9 b9 00 00 00 00 e4 35 05 ba 62 3a 85 ba
       -0.00041514062 0.0 -0.00050815777 -0.0010164494
0000a0 3c 4e eb b9 00 00 00 00 72 45 7b bb 00 00 00 00
       -0.00044880982 0.0 -0.0038340953 0.0
0000b0 85 54 35 bb 00 00 00 00 86 95 07 3b 00 00 00 00
       -0.0027668786 0.0 0.0020688488 0.0
0000c0 00 00 00 00 68 b8 c7 3b c3 9a 2e ba e6 19 61 bb
       0.0 0.006094981 -0.00066606345 -0.0034347712
0000d0 7c f4 80 ba 00 00 00 00 60 7a 82 ba 61 7b 86 bb
       -0.0009838487 0.0 -0.0009954683 -0.0041040634
0000e0 56 00 fd bb 7e 8b 98 bb 3d 67 1d bb a8 9e 00 ba
       -0.0077209873 -0.0046553006 -0.0024017834 -0.0004906454
0000f0 00 00 00 00 3b ae 06 ba a7 d0 14 bb 0a 8c 8c 3a
       0.0 -0.00051376567 -0.0022707374 0.0010722887
000100 00 00 00 00 54 e6 58 bc 98 bc 8a ba 00 00 00 00
       0.0 -0.013238508 -0.001058477 0.0
000110 d5 57 78 bc d3 a7 5f bc 08 fc 84 ba 71 84 0d bb
       -0.01515766 -0.013650852 -0.0010145912 -0.0021593834
000120 00 00 00 00 39 d3 34 3a 00 00 00 00 b1 e1 97 bc
       0.0 0.00068979297 0.0 -0.018540235
000130 d9 d5 63 ba 00 00 00 00 f1 fc 14 3c b1 e8 0f bb
       -0.00086912286 0.0 0.009093509 -0.0021958763
000140 f0 29 35 ba 00 00 00 00 00 00 00 00 00 00 00 00
       -0.0006910851 0.0 0.0 0.0
000150 9d 18 10 3c 19 e2 f8 3b e9 fa 30 b8 38 62 7b bc
       0.008794931 0.0075953123 -4.219535e-05 -0.015343241
000160 53 1e 09 3c ef 37 92 bb ab 7f ca ba 93 8a e1 3b
       0.008369046 -0.004462234 -0.0015449425 0.0068829744
000170 c8 f6 9b ba 00 00 00 00 00 00 00 00 00 00 00 00
       -0.0011899108 0.0 0.0 0.0
000180 ac 6b df 3b 8f 53 b8 3b f6 1f 0c bb eb 21 3b 3b
       0.0068182554 0.0056251953 -0.0021381355 0.0028554152

sequential_2/dense_9/BiasAdd/ReadVariableOp/resource f4 [75]
000000 aa fa 8a 3d 3a 47 a9 bd e6 ac 2f bc 4b 3b 39 3d
       0.067860916 -0.082655385 -0.010722375 0.04522256
000010 25 c6 96 3d b6 e3 b2 3d 21 0a 56 3d 18 68 33 3d
       0.07362012 0.08734839 0.052255753 0.043800443
000020 10 d8 1e 3d a3 0a 90 3d 5d 1b 48 3d 55 45 28 3d
       0.038780272 0.07033279 0.04885422 0.041081745
000030 2c 01 84 3b f4 36 63 3d 92 61 a8 3c 13 26 e9 3c
       0.00402846 0.05547233 0.020554338 0.028460538
000040 da 65 13 3b be 55 38 3d 2c 11 43 3d b0 dc 4c 3c
       0.0022491128 0.045003645 0.0476238 0.012503788
000050 73 3f 5b 3d c9 54 eb 3b 1d 34 8f 3d 1b 19 34 3c
       0.053527307 0.007181738 0.06992362 0.010992314
000060 7d 9d 40 3c 6e 75 06 3d 14 24 80 3d 09 32 61 3c
       0.011756298 0.032826833 0.06256881 0.0137448395
000070 ba 8e ca 3c 15 b2 be 3c f8 ce d1 3c a1 eb 07 3d
       0.02472626 0.023278276 0.025611386 0.033183698
000080 56 ed 8c 3c eb ae da bb 6d 9d 73 3d 0c c2 08 3d
       0.017203014 -0.006673684 0.059476305 0.033388183
000090 3c 4c de 3c de 0c 8e 3c 42 d1 1b 3d 04 11 b1 3c
       0.02713596 0.01734012 0.03804136 0.021614559
0000a0 b3 51 9f 3d 2e f9 89 3d e2 b8 07 bc 86 13 6b 3d
       0.07779255 0.067369804 -0.008283826 0.057391666
0000b0 7c 32 00 bd a7 fb fe 3c 99 04 e1 3c 2b c9 6b bc
       -0.031298146 0.031125857 0.027468013 -0.014391224
0000c0 89 ca 76 3d f4 14 3e 3d 27 48 fd bc ed 31 a9 bc
       0.060251746 0.0464067 -0.030918194 -0.02065369
0000d0 6a 66 2d 3d 6e 9e 02 be ba 8e d4 3c 4a 9d 63 3d
       0.042333998 -0.12755749 0.025946964 0.055569924
0000e0 e8 0b 8f 3d d4 7f 90 bb 81 a6 2a bc c2 eb 3f 3d
       0.06984693 -0.0044097695 -0.010415674 0.046855696
0000f0 cd e3 3f bd a4 07 0c 3b ac f9 e7 3c aa af 0e 3d
       -0.046848107 0.002136686 0.028317295 0.034835495
000100 2a cc 94 bc 8a 25 7a 3d c8 42 89 bc 78 33 c7 bc
       -0.01816376 0.061070956 -0.016755477 -0.024316534
000110 49 a2 bd bd 36 30 ed 3c 2a 0d f3 3c 61 5d a3 bd
       -0.09259469 0.028953653 0.029669363 -0.07976795
000120 e7 e4 a8 3d 12 fb 83 3d 8b 50 9f bc
       0.08246785 0.06444372 -0.019447586

sequential_2/dense_10/MatMul f4 [75, 75]
000000 5e fb b4 3d 4e c9 ad 3d 6f 51 1d 3d a0 2c 51 3d
       0.08837007 0.084856614 0.03840774 0.05106795
000010 85 3e 44 3e 83 05 c1 bd 23 9d b6 3d 38 cb 28 bc
       0.19164474 -0.094248794 0.0891669 -0.010302357
000020 1e ca 16 be 03 bf 2b be a1 d8 9f bd 70 c9 44 3e
       -0.14725539 -0.16772084 -0.078049906 0.19217467
000030 8a 99 a1 bd 08 20 68 3d c8 dc 35 3d 72 5f ac 3d
       -0.078906134 0.056671172 0.044400007 0.08416642
000040 e7 49 39 3e 42 47 51 3e 30 ed 49 be 48 42 b7 3b
       0.18094598 0.20437339 -0.19719386 0.005592618
000050 74 66 b5 3c f6 7f 0d 3e 82 1c 7c bd 95 04 3c 3e
       0.02214358 0.13818344 -0.061550625 0.18361123
000060 26 f5 0f be f7 11 16 3e 69 3c 5d 3e 7f d9 9f 3e
       -0.1405836 0.1465529 0.21605076 0.31220624
000070 80 40 8a 3d ee 30 87 3e 7a 56 13 3c 2a db 53 3e
       0.06750584 0.26404518 0.008992786 0.20689073
000080 01 af b5 bd 76 29 54 be 86 8d a2 3e a8 42 2d 3d
       -0.0887127 -0.20718941 0.317486 0.042299896
000090 38 47 5d 3d 0b 39 50 be 2a a9 1a 3d 0d 7b 39 3e
       0.054022998 -0.2033426 0.037758984 0.18113346
0000a0 c4 d2 a7 3e 56 e5 c9 3d a4 7a 11 be 6f b5 27 be
       0.3277799 0.098581955 -0.1420694 -0.16377805
0000b0 a8 c0 a8 3e 2d 5b 0f 3e 75 63 7f bd 32 83 3b 3d
       0.32959485 0.13999625 -0.06235071 0.045779414
0000c0 17 9b 69 3e 78 fc 22 3e 84 a9 2f be 9a 85 88 bd
       0.22813068 0.15916622 -0.17154509 -0.066661075
0000d0 c9 39 c8 3e 0f d2 24 3e aa 3b 82 3e d7 35 0d be
       0.39106587 0.16095756 0.25436145 -0.1379007
0000e0 9f 4a 4c be 47 8c f4 3c 4f f9 cb 3e 34 05 1b 3e
       -0.1995034 0.029852046 0.39838645 0.15138704
0000f0 ea 81 f7 bd c8 af 58 3e fe fa 70 3e da 7b cb bd
       -0.12085326 0.21160805 0.23533246 -0.09935732
000100 ed 36 1c be 26 23 8e bc 2e 84 86 be 9c e1 1e 3e
       -0.15255328 -0.017350744 -0.2627272 0.1551575
000110 be 4a 2a be 40 c4 94 3d 04 7d 1f be 7b 7c c7 bc
       -0.16630074 0.07263994 -0.15575033 -0.02435135
000120 7c 22 b5 3d fb 52 c2 bd ea 6d 22 3e 21 2b 1b 3d
       0.08844468 -0.094884835 0.15862241 0.037882928
000130 17 6e 0d 3e 37 d9 97 3e 70 06 d9 bd 34 a8 e4 bd
       0.13811527 0.2965791 -0.10596931 -0.11164895
000140 e6 ee 3b bd 6a ec 3f bc 89 b9 9c 3d 5b 72 29 3c
       -0.04588213 -0.01171408 0.076525755 0.010342206
000150 bf cb 67 bd e6 0c 91 3d 0c dc 67 3c a8 e4 06 3e
       -0.05659079 0.07082538 0.014151584 0.13173163
000160 c6 4b 43 be 91 c3 be 3e eb 7c 80 3e 24 14 a0 3e
       -0.19071874 0.3725858 0.25095305 0.31265366
000170 af 31 e1 3d 0c ba 58 3e 72 e6 0c 3e 3e c8 5e bd
       0.109958045 0.21164721 0.13759783 -0.054390185
000180 99 32 80 3e c4 c1 d0 bd b0 d7 80 3e bd 3e 9e 3e
       0.25038603 -0.10193208 0.25164557 0.3090724
000190 d5 57 df bd a7 8f 33 3e 92 45 99 3c 08 54 96 3c
       -0.109054245 0.17535268 0.018709932 0.018350616
0001a0 ee 88 b7 bd 0a 7c 25 be c3 4f 6c 3d 50 f1 55 3e
       -0.08961664 -0.16160598 0.057693254 0.20892835
0001b0 98 15 c9 3d 2a ee a7 bd 8a 39 b6 bd 1b 85 83 bd
       0.09818572 -0.08199723 -0.088976935 -0.06421872
0001c0 60 e8 e2 3e 39 7f 67 be 4e 2c 4a 3e 04 0f ae bd
       0.44317913 -0.22607125 0.19743463 -0.08498958
0001d0 cf c3 83 be e1 90 48 3e 4b d6 3f 3e c8 40 e4 3d
       -0.25735328 0.19586517 0.1873409 0.111451685
0001e0 15 c1 1a 3e 30 e0 6d 3e af 0d 16 3e 65 13 00 3e
       0.15112717 0.23230052 0.14653657 0.12507398
0001f0 92 76 f9 3d ad 57 03 ba 0f 72 15 3e f7 da 08 3c
       0.121808186 -0.0005010318 0.14594291 0.008352987
000200 66 91 f2 3d 0e b0 87 3e 72 d3 1d bc b0 52 be 3c
       0.11844139 0.26501507 -0.009632932 0.023232788
000210 07 33 78 3e f5 36 55 3e ca 1b 3a be 6a 29 b5 3d
       0.24238215 0.20821746 -0.18174663 0.0884579
000220 68 b1 b9 3d 5c 57 90 3e 0c 78 b6 bc b7 bd 8a 3d
       0.09067041 0.2819165 -0.02227404 0.067744665
000230 63 f7 24 bd aa 55 07 be 3b 8d 2a 3e 5f a0 0f 3e
       -0.04027499 -0.13216272 0.16655438 0.1402602
000240 bf cb 39 3e 9e 78 b4 bd 1e 04 3b 3e 94 f4 ee 3d
       0.18144129 -0.088120684 0.1826329 0.11667743
000250 e8 d9 70 be 8d e3 8c bc 45 f5 f9 3d ea 73 3f 3e
       -0.23520625 -0.017198348 0.122049846 0.18696561
000260 97 c2 3f be e6 1d 16 3d f6 7e 27 3e 25 fd 75 3e
       -0.18726574 0.036649607 0.16357026 0.24022348
000270 0a f7 0e be c3 02 48 3e e5 9d f8 3d 95 37 13 bd
       -0.13961425 0.19532304 0.12139491 -0.03594168
000280 0a f9 a5 bc c0 17 35 3d 74 89 7f be 2c 5b 21 3e
       -0.020260353 0.044212103 -0.24954778 0.15757436
000290 73 5e 95 be ce d1 67 3d 6c a6 54 bd b9 44 22 bd
       -0.29173622 0.05659657 -0.051916525 -0.03961632
0002a0 70 84 5f bd 57 4b 9a 3d 72 82 b0 3e 57 a9 80 be
       -0.05456966 0.07533901 0.34474522 -0.25129196
0002b0 26 5b 80 3e 58 7d b7 bb 1f 38 70 be ad dc 03 3d
       0.2506954 -0.005599659 -0.23458908 0.032192875
0002c0 f4 fe 6c 3e d2 7c 6a 3e 6e 73 94 3c 68 33 50 bc
       0.23144132 0.22899178 0.018121447 -0.012707569
0002d0 bf 96 92 bd c2 6b fe b8 67 0f b4 bd f2 6e 1f 3e
       -0.07157659 -0.00012131735 -0.08792 0.15569666
0002e0 82 80 00 3d 43 f4 4f bb 44 2d 77 3e 83 34 b1 bc
       0.031372555 -0.0031731285 0.24138361 -0.021631485
0002f0 15 ae 45 3e 42 45 f5 bc 72 26 3a 3e 6d 20 8a 3e
       0.19304688 -0.029940251 0.18178728 0.26977864
000300 1c ff 85 bc 08 78 40 3b 20 9d 4e 3d 63 2f cc 3d
       -0.016356997 0.002936842 0.050442815 0.09969976
000310 b4 04 39 bd 17 56 95 bd 09 c6 d9 3d 4e 5d 1c be
       -0.0451705 -0.07291811 0.10633475 -0.15269968
000320 db 82 8d 3d 65 7b 84 bd c9 71 7c bd ab 56 54 3e
       0.06909724 -0.06468848 -0.06163195 0.20736186
000330 99 26 6a bc 93 88 84 bd 4a c9 c6 3c ce 58 d7 bd
       -0.014291429 -0.06471362 0.024265904 -0.10514985
000340 dc 46 18 3e 78 6a 79 3e d9 1d f0 3d de 14 a4 be
       0.1487078 0.24357021 0.11724443 -0.3204717
000350 e7 05 5d be 61 dd e0 bd b9 27 d5 3d 6d ca 5d be
       -0.21584283 -0.10979725 0.10407967 -0.2165925
000360 cf cc d7 3d ed 0b f8 3d e9 13 ee 3d 18 9c d6 bd
       0.10537111 0.1211165 0.11624891 -0.10478991
000370 8a b5 06 3e f4 8a 97 3d 82 a8 cb 3c cb 0f 86 3e
       0.13155189 0.0739955 0.024860624 0.26183924
000380 b9 90 80 3e a4 1e ae 3d dc 1c 5c 3e 31 5e 3d 3e
       0.25110415 0.08501938 0.21495384 0.18492962
000390 3d 33 d2 bd 8e 8b 38 3d ab 3b 86 3c df 30 c5 bd
       -0.10263679 0.045054965 0.016385874 -0.09628462
0003a0 10 22 fa 3d 3e a3 7c 3c 4f cf 0e be f2 13 93 3d
       0.12213528 0.015419779 -0.1394627 0.07181539
0003b0 2c b5 51 3e 1e d6 62 3e 15 a1 da bc 41 11 fd 3d
       0.20479268 0.22151992 -0.026688138 0.123568065
0003c0 3d d1 51 3e 6b e1 19 3e da 2b 48 3e 40 06 de 3e
       0.20489974 0.15027396 0.19547978 0.43364143
0003d0 b1 3c 04 be 15 07 41 be b0 f1 16 3e bc 80 c4 bd
       -0.12913777 -0.18850358 0.14740634 -0.09594867
0003e0 14 12 3e bd 8d c4 63 3e f2 3b 70 3d f5 80 55 3e
       -0.04640396 0.22242947 0.05865092 0.20849974
0003f0 e2 cf 8d be 7d c7 b2 3e dc 68 1e 3b 0f 4a 26 be
       -0.27697664 0.34917822 0.0024171388 -0.16239189

sequential_2/dense_11/MatMul f4 [5, 75]
000000 e8 8b a6 be 95 2c 92 3e 59 5a fb be d1 8c a1 3e
       -0.32528615 0.28549638 -0.49092367 0.31552747
000010 3a cb 56 be 55 a0 89 be 48 6a b6 3d b4 aa 8f 3e
       -0.20975962 -0.26880136 0.0890699 0.28059924
000020 df 05 b0 3c d7 6e 90 3a 4d c9 a7 be 8e 8f 02 bf
       0.021487175 0.0011019361 -0.32770768 -0.510003
000030 5e 2a 57 be 75 f8 4f 3e 1a fa a6 be e0 79 e5 be
       -0.21012256 0.20309623 -0.32612687 -0.44819546
000040 db 7d 98 be f2 a1 17 3e b8 2a 10 3d 1a 61 69 be
       -0.2978352 0.14807871 0.03519699 -0.22790948
000050 02 7d 4e 3e b3 ea ca 3c d4 cb 97 3e e0 a7 42 be
       0.20164874 0.024770116 0.29647696 -0.19009352
000060 44 24 38 bc 94 3a 02 bf 25 af 7c be 3e 3d 4c 3e
       -0.011239115 -0.50870633 -0.24676187 0.19945237
000070 cd 4a b7 3e 5b 8a 7b be 38 aa 81 3e 43 99 b5 be
       0.35799256 -0.24564497 0.2532518 -0.35468492
000080 5a 41 5a be ef f4 f3 3e c0 97 8b 3e ed e9 14 bf
       -0.21313992 0.47647807 0.27264214 -0.5816944
000090 41 31 38 be 6b b3 62 3e ef ae 04 bd 86 6f 0e be
       -0.17987539 0.22138755 -0.032393392 -0.1390973
0000a0 d3 3d b2 3c 83 c0 a5 be 9e f4 9e 3e ad 00 10 be
       0.021757996 -0.32373437 0.31046003 -0.14062758
0000b0 52 97 83 3e d6 03 0d bf 6f 18 87 be e1 fa 46 be
       0.25701386 -0.5508398 -0.2638583 -0.1943164
0000c0 75 3d 5e 3e 17 61 fc be c8 83 a7 3e f4 bc a9 3d
       0.21703131 -0.49292824 0.3271773 0.08287993
0000d0 57 53 0b 3d 1d d7 fc bd b0 49 af bb 8b d1 b1 3d
       0.034015026 -0.12345717 -0.0053493604 0.08682545
0000e0 fc 6a cf 3e 30 4f 99 3d d4 1d 57 3e 25 1a 44 bd
       0.4051131 0.07485807 0.21007472 -0.047876496
0000f0 e7 3d 39 3e a9 dc cd bd 85 15 cc bc bc a3 ed 3d
       0.1809002 -0.10051853 -0.024912605 0.116034955
000100 9c 31 26 bf fd 6d 16 bd 6a e5 6d 3e 29 24 1d be
       -0.6491945 -0.036725987 0.23232046 -0.15345825
000110 dc 51 34 be 55 0b 64 3d 93 a2 d5 3d 1b 1f b6 be
       -0.17609352 0.05567487 0.10431399 -0.35570607
000120 33 9d a2 be e2 6b d4 3d 80 26 48 3e fb 7b 3b be
       -0.31760558 0.103721395 0.19545937 -0.18309014
000130 ef 49 cf be d6 0b e4 3d 8a 41 aa be ec 57 1a 3e
       -0.40486094 0.1113507 -0.33253127 0.15072602
000140 a7 bb 0e be 66 b5 e4 3c 6a 81 c7 be 4f b7 8e bc
       -0.13938771 0.027918529 -0.38965923 -0.017421393
000150 84 ba 90 3d cb b0 e8 3d ce d3 ee 3e 3e 19 a1 3d
       0.07066825 0.113618456 0.4664597 0.07866143
000160 d6 03 55 3e 35 9f 9e 3e 2b 52 a0 3d 72 9d d8 be
       0.20802245 0.3098084 0.07828172 -0.4230762
000170 4c ce 8e be dc 3d 4f 3e db 77 d0 be 46 9b c5 be
       -0.27891767 0.20238441 -0.40716442 -0.38595027
000180 ab 64 8f 3d fa 32 a3 3e 8a 8a 8a 3d c4 95 bc be
       0.07001623 0.3187483 0.067647055 -0.36833012
000190 95 f8 a1 be 4b 9e 88 be 4b 69 ab 3e f8 a3 a9 bc
       -0.31634966 -0.26683268 0.3347877 -0.02070807
0001a0 36 ac 9b 3e 46 80 61 3d ce d7 27 3d a1 73 99 be
       0.30404824 0.05505397 0.04097729 -0.2997103
0001b0 4e ae 4e be 0d 56 b1 3e d6 92 32 3e e8 d6 ff 3d
       -0.2018368 0.34635964 0.17438826 0.12492162
0001c0 1f 84 2e 3b 80 45 e7 be 52 23 8f be 3b 27 f0 be
       0.0026629043 -0.45170212 -0.27956635 -0.4690493
0001d0 25 c9 08 be d2 33 99 bd dd a0 fd bd 45 76 e8 be
       -0.1335798 -0.07480587 -0.12384198 -0.45402732
0001e0 8a 05 b5 3d 31 ec 25 be 05 20 09 3e bf eb 54 be
       0.08838947 -0.16203381 0.1339112 -0.20793055
0001f0 2e 44 e5 bd c4 16 f3 bd 4d d6 f1 be 82 f0 00 3f
       -0.11194645 -0.118695766 -0.4723381 0.50366986
000200 0b 8c 7c be 6e 3d fa 3c e9 4f b7 be 27 ac 85 bd
       -0.24662797 0.03054687 -0.35803154 -0.06526976
000210 d9 c7 a2 3e 94 62 fd 3e b5 73 a0 3d 97 aa a7 be
       0.31793097 0.49489272 0.07834569 -0.32747337
000220 81 4c e0 3e 8b 87 8b be 8c b9 e8 be 78 2a 92 3e
       0.43808368 -0.2725185 -0.4545406 0.28548026
000230 78 d7 c1 be d7 49 a1 bd f2 73 98 be e8 fc 8f be
       -0.37859702 -0.07875412 -0.2977596 -0.2812264
000240 bf 3b 06 bf 8b fe be be 7c 52 7b 3e 94 9a e3 3e
       -0.52434915 -0.37303576 0.24543184 0.4445387
000250 bf 6f a4 3d 55 34 6b be c3 81 1c 3e 24 1a bd be
       0.080291264 -0.22969182 0.15283875 -0.36934006
000260 82 54 05 3e e4 c7 c7 be 66 77 cd 3c 71 e3 5a be
       0.13020518 -0.39019692 0.025081348 -0.21375825
000270 07 75 10 be c2 a2 7e 3e ae 9e 34 be b8 77 49 3e
       -0.14107142 0.24866775 -0.17638656 0.19674575
000280 82 7f 0b 3e a0 81 3d be e6 fd e1 3d 19 44 a6 be
       0.13622859 -0.1850648 0.110347554 -0.3247383
000290 94 1a 65 3d 9d 3e c4 be a2 e1 ae 3e 3d 6d 9a be
       0.05593355 -0.3832902 0.3415652 -0.30161467
0002a0 83 cf 61 be 93 fa 16 3e 00 83 b3 be c1 6f d8 be
       -0.22051816 0.14744024 -0.35060883 -0.4227276
0002b0 4f 2c 08 bf 43 8b 08 3e ed e0 85 be 17 e5 5a 3e
       -0.5319261 0.13334374 -0.26148167 0.21376453
0002c0 6b c5 b4 be ca 69 9d be 2f 56 a2 be df 18 cf be
       -0.35306868 -0.30744773 -0.31706378 -0.40448663
0002d0 ad 0c 9f be c5 b4 28 3e 90 0c fb be d8 0c 21 be
       -0.31064358 0.16475208 -0.49033022 -0.15727556
0002e0 6b 17 e8 3c 94 8b b4 bd 5a 8a 45 bd 1a 33 e1 3d
       0.028331479 -0.08815685 -0.048227645 0.10996075
0002f0 d6 d2 9d 3e 44 f6 9b 3e 5a cc 81 bd 22 99 13 3e
       0.30824918 0.30461323 -0.06337805 0.14413884
000300 e0 bb 5d 3e aa 17 c6 be fc 29 ef 3d f3 cd 9b 3d
       0.216537 -0.3868993 0.1167793 0.07607641
000310 17 ea 1b 3d 38 8c a2 be 8e 63 a2 3e 17 5b 86 3e
       0.038065042 -0.31747603 0.3171658 0.2624137
000320 b4 93 16 be 3f e7 7a 3e 77 3f 25 bd 03 65 b5 3c
       -0.14704782 0.24502276 -0.040343728 0.022142893
000330 03 65 02 bf 2f 7d 4d 3e 2d 25 77 3d a9 7c c7 be
       -0.5093538 0.20067285 0.060338188 -0.38962296
000340 a1 f6 0c bb ec 46 bc be 66 a2 74 3e f2 fc 7c 3c
       -0.0021509307 -0.3677286 0.23890075 0.015441166
000350 29 06 ac 3d 61 33 54 3e 58 d7 68 3e 2e 47 07 3d
       0.083996125 0.20722724 0.22738397 0.033026867
000360 b8 13 7a 3e da 74 66 3e 0b ff 94 3e 29 c7 3a 3e
       0.24421585 0.22505513 0.29100832 0.18240036
000370 d4 e8 8b 3e af 54 d2 be c4 06 d2 be 29 3d bd bd
       0.2732607 -0.41080233 -0.41020787 -0.09240181
000380 28 5a 87 3e 85 af 8c 3e 9b 7a 91 3e fd 97 2c be
       0.2643597 0.2747766 0.28413853 -0.16854854
000390 ac 57 dc 3d 61 92 3f 3e ce 42 08 be a0 af 36 3d
       0.107589096 0.18708183 -0.13306734 0.044601083
0003a0 81 c1 9a be dd 74 d3 bc 6d f0 d1 be 89 2e c7 be
       -0.30225757 -0.02581256 -0.41003743 -0.3890269
0003b0 c8 2e e4 ba 02 aa 27 be 5b 0a af 3d a5 cf c4 be
       -0.0017408961 -0.16373447 0.08546897 -0.3843967
0003c0 5d d8 ed 3e 3f c3 5f 3e 3b 95 d1 bd 89 a9 e9 bc
       0.46454135 0.21851824 -0.102335416 -0.028523223
0003d0 ab cd f2 bd c0 14 96 3e 19 8e a4 3e 86 e4 79 be
       -0.11855634 0.29312706 0.32139662 -0.24403581
0003e0 bd 82 99 be da 34 b9 3e 21 a5 eb bd 4c c9 e9 3e
       -0.29982558 0.36173135 -0.11506105 0.4566139
0003f0 c2 1d 82 bd c9 0c 9c be 5e c6 b0 3d 90 fe 98 be
       -0.06353332 -0.30478504 0.086315855 -0.29881716

sequential_2/dense_8/MatMul f4 [100, 714]
000000 e0 ea 1b bb bc cd b8 3c 18 1d fa 3c 18 9a 07 bd
       -0.002379112 0.02255904 0.030531451 -0.03310594
000010 18 4b 97 3c 40 d6 51 bc 15 3f 9d bd de 1c 4d 3d
       0.018468425 -0.012807429 -0.076780476 0.050076358
000020 c2 7a 49 3d cd a5 a8 3d b4 b5 9c bd 70 95 2b bc
       0.049189337 0.08234749 -0.076518446 -0.01047264
000030 1e f5 46 3d 80 12 00 bc a5 9d 80 3d dc e0 8d 3c
       0.048573606 -0.007816911 0.06280068 0.017319135
000040 00 14 fd 3a 86 2a aa bd 60 a4 20 3b 98 93 50 bd
       0.0019308329 -0.08308892 0.0024512038 -0.050922006
000050 bf 5d 8b bd 2c 4c 6f bd 80 44 9b ba 96 92 7f 3d
       -0.0680499 -0.058422253 -0.0011845976 0.062395655
000060 d3 dc 22 bd ec 1d 46 bd 20 34 b7 3b 68 38 a1 bd
       -0.039761376 -0.04836838 0.0055909306 -0.07872087
000070 58 c1 ef 3c 06 c0 72 bd d4 21 f6 bc fc be 93 bd
       0.029266998 -0.05926516 -0.030045427 -0.07214162
000080 71 87 9e 3d 20 6c cc bb e0 95 7a 3b a9 65 ab bd
       0.07740677 -0.0062384754 0.0038236305 -0.083689995
000090 cb ae 9c 3d d9 53 a1 3d 90 b4 8b bc bd 4a 31 bd
       0.076505266 0.07877321 -0.017053872 -0.043284167
0000a0 94 4e 3f bd 30 34 5b 3c f0 3a 01 3c a3 f5 8a 3d
       -0.046705797 0.013379142 0.007887587 0.06785133
0000b0 3d aa 96 bd 40 2b d9 ba f8 a4 13 3c 3b 68 6e bd
       -0.07356689 -0.0016568676 0.0090115 -0.05820487
0000c0 d0 4d 17 bc 80 00 d8 3b e0 a3 64 bc 32 71 34 3d
       -0.009234861 0.0065918565 -0.0139550865 0.044053264
0000d0 80 f1 40 bb f6 c9 7f 3d 94 54 13 3d 40 40 46 3c
       -0.002944082 0.062448464 0.03596933 0.012100279
0000e0 3c ce 64 bd 96 8c 7e 3d 54 59 9e bd e5 16 99 3d
       -0.055860743 0.062145792 -0.07731882 0.0747507
0000f0 fb 27 9f bd e5 17 6d bd 40 be 5c bc 60 db 1b bc
       -0.077712975 -0.057884116 -0.0134730935 -0.009512752
000100 e6 5e 5f bd 37 84 ac 3d 54 fd f2 bc a0 a1 12 bb
       -0.05453386 0.084236555 -0.029661812 -0.0022374168
000110 e4 33 a6 bc 08 f6 c1 bc d0 ed 58 3c 57 49 90 bd
       -0.020288415 -0.023676887 0.013240293 -0.070452385
000120 fe 7f 0e bd f0 fc 45 bc 60 0e d4 bb 1e 4d d4 bc
       -0.03479003 -0.012084231 -0.00647144 -0.025915679
000130 43 03 ab bd 3b 33 95 3d df 9b 91 3d 48 5f 52 bc
       -0.083502315 0.07285162 0.07109808 -0.0128401
000140 45 b9 90 3d dc 2e ee bc 0a 95 26 3d 23 c7 8c 3d
       0.07066587 -0.029075079 0.04066948 0.0687392
000150 82 c3 09 3d 61 b3 9a 3d 2a 97 25 3d 00 98 03 ba
       0.033633716 0.07553745 0.040427364 -0.0005019903
000160 39 fd aa 3d ec 63 8e 3c 2e 7b 02 bd 1c 26 8c 3c
       0.0834908 0.01738163 -0.031855755 0.017108016
000170 d8 83 c3 3c ae fd 16 3d 2e 40 39 3d bc 98 90 bd
       0.023866579 0.03686302 0.045227222 -0.07060382
000180 e8 92 8c bd 42 38 3f 3d d7 df 95 3d ca 0c 80 bd
       -0.06863958 0.04668451 0.07318085 -0.06252439
000190 52 aa 52 bd fd 4a a9 bd 48 db ca bc e0 d4 50 3c
       -0.05143196 -0.08266256 -0.024762765 0.012746066
0001a0 9c 1e 31 bd 30 57 df 3b 32 61 45 3d 6a 51 45 bd
       -0.043242082 0.0068158135 0.048188396 -0.048173346
0001b0 5d da a4 3d 0c f3 b9 3c 17 4d 88 3d f5 9b 80 3d
       0.08049462 0.022698902 0.06655329 0.062797464
0001c0 f0 75 0b 3d 01 e7 a0 3d 80 b7 0b ba e2 74 85 bd
       0.03404802 0.078565605 -0.0005329773 -0.06516434
0001d0 3e 82 46 bd 93 1c 59 bd a9 ab 80 3d ae 5b 4a 3d
       -0.048464052 -0.053005766 0.062827416 0.04940384
0001e0 60 d9 07 3c ad 2a 8a bd 00 48 da 3b c8 26 48 bc
       0.008291572 -0.06746421 0.006661415 -0.012216277
0001f0 9e c2 3b 3d fc f0 e5 3c 92 b9 6e 3d 00 e2 2d ba
       0.0458399 0.028069012 0.058282442 -0.0006633103
000200 03 ea 99 3d b6 0b 2e 3d e0 58 07 3b 3c 78 ab 3c
       0.07515337 0.042491637 0.002065234 0.020931356
000210 7e 0b 22 3d a3 04 aa 3d 7d af 95 3d 3a 6a 2c 3d
       0.03956174 0.08301666 0.07308862 0.042093493
000220 00 94 eb 38 bd 00 a0 3d a0 e7 ea 3b d4 3b 93 bd
       0.000112332404 0.07812641 0.007168725 -0.07189146
000230 1d 59 47 bd 54 28 1e bd 9e 70 5d 3d bf 3b 9d 3d
       -0.04866897 -0.03861268 0.05406248 0.07677411
000240 30 c6 a2 bb a7 8e a9 3d c9 2a 97 3d 87 eb 29 bd
       -0.0049674734 0.08279162 0.073812075 -0.041484382
000250 11 51 8a 3d 90 5d bc bb ad 29 18 bd 39 7c 04 bd
       0.067537434 -0.005748458 -0.03714912 -0.03234503
000260 42 dd 21 3d 02 ef 5e bd b4 49 83 bc 4c f6 16 3d
       0.03951765 -0.054427154 -0.016026355 0.03685598
000270 d7 b1 ad bd 93 21 3e bd e8 5b 27 bc f0 c0 7d bd
       -0.08481186 -0.046418738 -0.010214783 -0.061951578
000280 f6 de 3f 3d 74 fe 1d bd 54 62 1b 3d ac 17 99 3c
       0.04684349 -0.038572744 0.03793557 0.018688045
000290 50 63 24 bd e4 04 9b bd de fa 52 3d 18 39 32 bd
       -0.040133774 -0.07569292 0.051508777 -0.04351148
0002a0 78 00 85 3c 33 5b 9a 3d 07 ec 19 bd 30 d6 11 bc
       0.016235575 0.07536926 -0.03757861 -0.008901164
0002b0 a4 ed 04 3d 8c 5a 84 3c 56 be 56 3d ea 2a 9a bd
       0.032453194 0.016156457 0.052427612 -0.075277165
0002c0 17 95 95 bd 9d ce 92 bd 0a 53 97 bd 9c f6 91 3c
       -0.07303827 -0.071683146 -0.07388885 0.017817788
0002d0 60 25 94 bb 31 5d a5 bd 09 40 89 bd fc 13 ba bc
       -0.004521057 -0.080744155 -0.06701667 -0.022714607
0002e0 da 09 1d bd fa 06 25 3d 8c bb b2 3c d6 28 7b 3d
       -0.038339473 0.040289856 0.021817945 0.06131824
0002f0 c8 ff 54 3c 78 5b e5 bc a8 43 37 bd c7 32 8a 3d
       0.013000436 -0.027997717 -0.044742256 0.06747966
000300 52 bb ac bd 30 8f 94 3b ba fc 41 3d 80 04 64 3b
       -0.08434166 0.004533671 0.04736016 0.0034792721
000310 27 91 9c bd 80 f4 49 bc a8 7d 0d 3d e0 04 23 bd
       -0.07644873 -0.01232636 0.034543663 -0.03979957
000320 54 1c 83 bc ef 98 88 3d 10 ca df 3c 00 91 00 ba
       -0.016004719 0.06669795 0.02731803 -0.0004904419
000330 10 c2 68 3c a0 06 2e 3c a5 47 ab bd 77 29 a8 bd
       0.014206424 0.010621697 -0.083632745 -0.08211034
000340 00 8d 2f ba ec 03 92 3c 28 1a 8f bd 3f 74 7d bd
       -0.0006696731 0.017824136 -0.06987411 -0.06187844
000350 2e 41 54 3d 66 9e 4e bd 98 b0 4d 3c 04 b8 e5 bc
       0.051819973 -0.05044403 0.01255431 -0.028041847
000360 f7 df 95 bd b7 2b 8e bd 69 94 ac 3d b4 16 98 3c
       -0.073181085 -0.06941932 0.084267445 0.018565513
000370 0c ac 96 bc bc 68 e3 3c 10 c9 61 bc 10 43 0b 3d
       -0.018392585 0.027759902 -0.013780847 0.033999503
000380 1b c7 a5 bd 24 b8 85 bc 40 ea eb 3a db 02 96 bd
       -0.08094617 -0.016323157 0.0017998889 -0.073247634
000390 84 03 87 bd cc 73 24 bd a8 a9 9b bd 3e 06 31 3d
       -0.065924674 -0.040149495 -0.07600719 0.043218844
0003a0 00 5f 6a 3b 12 7e 7d 3d 28 cf ab bd e0 f7 92 3b
       0.003576219 0.06188781 -0.08389121 0.0044851154
0003b0 8e 2c 9b bd b0 8b 92 3b b8 23 9d 3c e3 5f a2 3d
       -0.075768575 0.0044722185 0.019182071 0.07928445
0003c0 b6 90 66 3d 11 51 ab 3d e0 ff 2a 3b 49 de 0d bd
       0.05629035 0.083650716 0.0026092455 -0.034635816
0003d0 ac 10 18 3d 74 ce b1 bc b0 e7 65 bd 33 14 7c bd
       0.037125275 -0.02170489 -0.056129158 -0.0615427
0003e0 b7 2f 4c bd 54 1c da 3c ec 22 32 bd 28 4e 89 bd
       -0.049850192 0.026624836 -0.043490335 -0.0670436
0003f0 6e 68 2d 3d 06 bb 5e bd cd 6c 16 bd 82 6b cf bc
       0.04233592 -0.05437758 -0.036724854 -0.025319818

sequential_2/dense_9/MatMul f4 [75, 100]
000000 02 b3 97 3d e1 4f 8c bd cf 92 57 bd 62 1b d0 3c
       0.0740719 -0.06851173 -0.052630242 0.025403682
000010 be ec 21 3e d6 0a 8e bd 03 09 c0 3d ee 46 9c 3e
       0.15812966 -0.069356605 0.09376719 0.30522865
000020 46 59 c5 3d e4 34 48 be fa 70 bb bd 32 64 ff bd
       0.09636168 -0.19551426 -0.09152408 -0.124702826
000030 f9 e3 98 bc e0 c3 8c 3c 18 ae 85 3c b1 8e 3c be
       -0.018663393 0.017183244 0.016318366 -0.18413807
000040 aa 7e c7 3d 63 38 10 3e a9 37 04 be 00 07 d0 bd
       0.09740956 0.1408401 -0.12911858 -0.10157585
000050 54 91 26 bd 16 6e cf 3d df ca 92 3d d4 69 16 3c
       -0.04066594 0.10128419 0.07167601 0.009180505
000060 99 65 38 3e 9e 43 30 be c3 78 34 be 78 d9 50 3d
       0.18007506 -0.17213294 -0.17624192 0.050988644
000070 ae 28 af 3d 6c 6d 5c 3d cf 85 d0 bc d6 84 9f 3d
       0.08552681 0.05381529 -0.02545443 0.07789008
000080 77 2d ae bd c0 30 44 3e b2 8b b6 3d c3 26 c1 bd
       -0.085047655 0.19159222 0.089133635 -0.09431221
000090 15 26 0d be f8 bc 2b bd fa f7 d3 bd 2b 03 05 3e
       -0.13784058 -0.04192826 -0.10350032 0.1298949
0000a0 97 1b 63 3d b0 3c 85 bc 53 01 25 be 20 52 21 be
       0.055446234 -0.01626429 -0.16113786 -0.15753984
0000b0 42 c0 89 3d d7 08 fa bd d2 2b 0c 3d 70 59 5e bc
       0.067261234 -0.12208717 0.034221478 -0.013571128
0000c0 5a 71 24 be 9a 8c d5 bd af 6f 0a 3d 08 37 ed bd
       -0.16058865 -0.10427208 0.033797916 -0.11582762
0000d0 d9 ca 33 3b 85 60 01 3e 94 e5 11 be 9b 31 0a 3d
       0.002743414 0.12634476 -0.14247733 0.033738714
0000e0 f6 cd c3 3e 8f 82 39 3d 74 61 51 3e 47 a6 10 be
       0.38243073 0.045290526 0.20447332 -0.1412593
0000f0 ca 57 c0 bd 15 48 0d 3c 62 ba 01 bd 78 81 9c 3e
       -0.093917444 0.008623143 -0.03167189 0.30567527
000100 18 f7 8c 3c e3 29 a0 bd 12 4c 17 be 80 ba ca bb
       0.017207667 -0.07820489 -0.14775112 -0.0061867833
000110 47 b2 9b ba f2 d8 79 3d 42 71 94 3d 62 1e a7 bd
       -0.0011878692 0.06099791 0.07248165 -0.08160092
000120 31 9e 03 3e 95 9f db bc 3b ac 90 bd 29 76 11 3e
       0.12853314 -0.026809493 -0.070641 0.14205231
000130 dc ec d9 bd c4 ae 70 bd 35 a1 71 be b8 a6 81 3d
       -0.106408805 -0.05876042 -0.23596652 0.06330627
000140 a8 3f 15 3e a0 b7 dd 3c 1e 6d ec 3d bf 29 1f be
       0.14575064 0.027065098 0.1154425 -0.15543269
000150 4e 1e 95 bc f3 13 44 3e 6c 21 94 bd 63 ac 22 3e
       -0.018202927 0.19148235 -0.07232937 0.15886073
000160 e7 9c a2 3c dd 52 7a 3e a4 06 f1 bd a1 5b 86 3c
       0.019850207 0.24445672 -0.11768845 0.016401114
000170 c6 fa 1e 3e c0 0e d8 bb 3e 8d d6 3d a1 ef 38 be
       0.1552535 -0.006593555 0.104761586 -0.18060161
000180 e6 0a d2 3d 5a d2 c0 3c 74 c0 28 3e 31 2b 18 bc
       0.10255985 0.023537803 0.16479665 -0.009287641
000190 f6 3f b8 3d 64 6e f5 3c 33 64 d6 3d 30 8a 3c 3c
       0.089965746 0.029959865 0.1046833 0.011507556
0001a0 52 07 d9 3d ae f6 1b 3d 40 14 2a 3d bc 7d 1f 3d
       0.10597099 0.03807705 0.04152322 0.03893827
0001b0 87 9e 2b 3e e9 8f 2c 3e 80 75 5f 3d c8 b1 15 3d
       0.16759692 0.16851772 0.054555416 0.0365465
0001c0 b8 3a 8a 3d 7f cc d7 bd 88 c5 2b 3d b5 32 9a 3c
       0.06749481 -0.105370514 0.041936427 0.018823007
0001d0 24 2f 7d 3d 32 3f 70 3e 43 79 35 3e c8 ca 81 3d
       0.061812535 0.23461607 0.17722039 0.063375056
0001e0 5f 39 1f be 70 f9 fe bd 59 eb 5e bd c5 50 c6 3d
       -0.15549229 -0.1244992 -0.054423664 0.09683374
0001f0 3d f4 16 3e 6d 95 21 3e 56 52 83 3d 86 85 b3 bd
       0.14741607 0.15779658 0.06412189 -0.08765702
000200 70 51 7d bc 69 51 23 3e 74 1c 5f 3d 80 43 f0 bc
       -0.015461311 0.15949024 0.054470494 -0.029329062
000210 e3 22 04 3e f1 21 7b 3e c0 05 8a 3b e9 a6 8b bc
       0.12903933 0.24524666 0.0042121112 -0.017047362
000220 29 84 f6 3c 3b 56 38 be 69 59 9d bd fd 69 3b bd
       0.030092316 -0.18001644 -0.07683069 -0.045755375
000230 a4 12 18 bd b6 a0 ca 3d 61 0a 96 3d 15 20 35 3e
       -0.037127152 0.098939344 0.07326198 0.1768802
000240 1e 09 18 3e 39 47 9f bd b3 58 0a 3c 48 d2 59 bd
       0.14847228 -0.077772565 0.008443999 -0.053179055
000250 60 11 49 3d 62 52 48 bd 9b c5 2b be 9c 89 c2 bd
       0.049088836 -0.04890669 -0.16774599 -0.09498903
000260 a7 44 0d 3e ec ec e6 bd a0 4b ab 3d ed 5d 17 3d
       0.1379572 -0.11275658 0.08364034 0.03695481
000270 11 b4 ea bb 2f c8 cc bd c2 96 00 be c0 f7 01 3e
       -0.007162579 -0.099991195 -0.1255751 0.12692165
000280 5a 0c db 3d 47 fa f5 bd da d8 e0 bd ed bd 62 bd
       0.10695715 -0.12010627 -0.10978861 -0.05535691
000290 4e b7 7f bd 24 30 8f 3e de c0 0f be 70 73 c1 bd
       -0.062430672 0.27966416 -0.14038417 -0.09445846
0002a0 39 3c 3c 3d d1 5b 22 bd ad 20 b0 3c fe 00 76 bd
       0.04595587 -0.039638344 0.021499956 -0.06005954
0002b0 38 92 21 3d 66 6b 66 3d 3b 05 1c 3e 0e d2 cb bc
       0.039446086 0.056254767 0.1523637 -0.024880435
0002c0 48 71 91 3c 9c 7a 54 3d 3f a5 2a be ed e5 2b be
       0.017754212 0.051874742 -0.16664599 -0.16786928
0002d0 c5 a8 26 3e 19 56 95 bd fb b1 38 3e ab 08 23 3e
       0.16275318 -0.072918124 0.18036644 0.15921275
0002e0 ec bf 9a be f4 1a 38 be 89 39 ab bd 53 4f e7 3c
       -0.3022455 -0.17979032 -0.08360583 0.028236067
0002f0 b4 a3 25 be a1 fe 97 3e d0 94 1b bd cb 84 4f be
       -0.16175729 0.29686454 -0.037983716 -0.202655
000300 e0 c3 03 3e 60 9e 3a 3c 90 ad 1a bd 9a e6 1e be
       0.12867689 0.011390299 -0.03776318 -0.15517655
000310 ec 46 11 be 09 dc 86 be a9 f9 24 3e 12 96 9a bd
       -0.14187211 -0.26339749 0.16110863 -0.07548155
000320 c5 9c 1c 3e 69 ec 92 3d e4 4b 54 3d cc a2 83 3e
       0.15294178 0.07173998 0.051830187 0.25710142
000330 9b 22 d1 bd 64 df 19 be 7d 3c e8 3d 4e 8a 67 be
       -0.102116786 -0.15026623 0.11339662 -0.22611353
000340 6d 1b 25 3d 35 6a 43 3e 68 61 e8 bc 02 47 35 be
       0.04030936 0.19083484 -0.02836676 -0.17702869
000350 d6 48 00 3d 0a 3b da 3d ab 3c 1a 3e 52 fa f2 3d
       0.03131946 0.10655792 0.15062205 0.11864151
000360 80 cb 82 bc 0d d3 a7 bd 7c bb 3a be 3d ac 0c be
       -0.015966177 -0.081945516 -0.18235582 -0.13737579
000370 6c 8d ac bd bb 81 26 be 1b 81 41 3d 91 7e c8 bd
       -0.084254116 -0.16260426 0.047242265 -0.097897656
000380 af ad 33 3e 4e 69 d4 bd c7 ce a4 bd 07 3d ff bd
       0.17546724 -0.10371648 -0.08047252 -0.12462812
000390 3b 54 3d 3e 10 5c 77 3d 76 c9 05 be ad 36 3b 3e
       0.18489163 0.060390532 -0.13065132 0.18282576
0003a0 80 23 ed 3b ec 5e 1a bd 83 62 04 be 68 c7 b5 bc
       0.007236898 -0.03768818 -0.12928204 -0.02218981
0003b0 1b 8b 19 bd 0f 08 0f be 32 13 43 3d 4a 6e 13 3d
       -0.037486177 -0.13967918 0.047625728 0.03599385
0003c0 4c 76 a0 bd 22 72 81 3d f5 56 c9 bd d8 87 a9 bc
       -0.07835063 0.06320597 -0.09831039 -0.020694658
0003d0 17 b9 30 3e de 49 ea bd d0 45 5f 3d 40 43 a9 3c
       0.17258106 -0.1143987 0.054509938 0.02066195
0003e0 92 08 c4 3d 61 ff 87 3c 52 2f 54 bd 22 5a 24 be
       0.09571947 0.016601266 -0.05180294 -0.16050008
0003f0 f7 47 d8 b9 b2 8b e5 3d f2 88 c7 3d 97 10 8f be
       -0.00041252348 0.112082854 0.09742917 -0.27942345
