src/models/pruned_quantized_model.tflite (tflite, 89184 bytes, 4 tensors)

sequential_2/dense_10/MatMul i1 [75, 75] scale=0.005883876 zero_point=0
000000 00 00 00 00 00 00 00 00 00 00 00 00 00 00 00 00
       0.0 0.0 0.0 0.0 0.0 0.0 0.0 0.0 0.0 0.0 0.0 0.0 0.0 0.0 0.0 0.0
000010 00 00 00 00 00 00 00 00 00 00 00 43 00 00 00 00
       0.0 0.0 0.0 0.0 0.0 0.0 0.0 0.0 0.0 0.0 0.0 0.39421967 0.0 0.0 0.0 0.0
000020 00 00 44 00 00 00 00 00 43 00 00 00 52 00 00 00
       0.0 0.0 0.40010354 0.0 0.0 0.0 0.0 0.0 0.39421967 0.0 0.0 0.0 0.4824778 0.0 0.0 0.0
000030 00 00 00 00 48 00 00 00 00 00 46 00 00 00 00 00
       0.0 0.0 0.0 0.0 0.42363906 0.0 0.0 0.0 0.0 0.0 0.4118713 0.0 0.0 0.0 0.0 0.0
000040 00 00 00 00 00 00 00 00 00 00 00 00 00 00 00 00
       0.0 0.0 0.0 0.0 0.0 0.0 0.0 0.0 0.0 0.0 0.0 0.0 0.0 0.0 0.0 0.0
000050 00 00 00 00 00 00 00 00 00 45 00 00 00 00 00 00
       0.0 0.0 0.0 0.0 0.0 0.0 0.0 0.0 0.0 0.40598744 0.0 0.0 0.0 0.0 0.0 0.0
000060 00 00 00 47 00 00 00 00 00 00 00 00 00 00 00 00
       0.0 0.0 0.0 0.4177552 0.0 0.0 0.0 0.0 0.0 0.0 0.0 0.0 0.0 0.0 0.0 0.0
000070 5f 00 00 00 00 00 00 00 00 00 00 00 00 00 00 00
       0.5589682 0.0 0.0 0.0 0.0 0.0 0.0 0.0 0.0 0.0 0.0 0.0 0.0 0.0 0.0 0.0
000080 00 00 00 00 00 00 00 00 00 00 00 00 00 00 00 00
       0.0 0.0 0.0 0.0 0.0 0.0 0.0 0.0 0.0 0.0 0.0 0.0 0.0 0.0 0.0 0.0
000090 00 00 00 00 00 00 00 00 00 00 00 58 00 00 00 00
       0.0 0.0 0.0 0.0 0.0 0.0 0.0 0.0 0.0 0.0 0.0 0.5177811 0.0 0.0 0.0 0.0
0000a0 00 00 00 59 00 00 00 00 00 00 5e 00 00 00 c0 00
       0.0 0.0 0.0 0.52366495 0.0 0.0 0.0 0.0 0.0 0.0 0.5530843 0.0 0.0 0.0 -0.37656805 0.0
0000b0 00 52 00 00 00 00 00 00 00 00 54 00 00 00 45 4c
       0.0 0.4824778 0.0 0.0 0.0 0.0 0.0 0.0 0.0 0.0 0.49424556 0.0 0.0 0.0 0.40598744 0.44717455
0000c0 00 00 00 00 00 00 00 00 00 00 00 00 00 00 00 00
       0.0 0.0 0.0 0.0 0.0 0.0 0.0 0.0 0.0 0.0 0.0 0.0 0.0 0.0 0.0 0.0
0000d0 00 66 00 00 00 00 00 00 00 00 00 00 00 00 00 00
       0.0 0.60015535 0.0 0.0 0.0 0.0 0.0 0.0 0.0 0.0 0.0 0.0 0.0 0.0 0.0 0.0
0000e0 53 00 00 00 00 00 00 00 00 00 00 00 00 00 00 00
       0.4883617 0.0 0.0 0.0 0.0 0.0 0.0 0.0 0.0 0.0 0.0 0.0 0.0 0.0 0.0 0.0
0000f0 00 00 00 6f 00 00 00 00 00 5a 00 00 00 4a 00 00
       0.0 0.0 0.0 0.6531102 0.0 0.0 0.0 0.0 0.0 0.5295488 0.0 0.0 0.0 0.4354068 0.0 0.0

sequential_2/dense_11/MatMul i1 [5, 75] scale=0.00833101 zero_point=0
000000 00 00 9e 00 00 00 00 00 00 00 00 00 00 00 00 a8
       0.0 0.0 -0.816439 0.0 0.0 0.0 0.0 0.0 0.0 0.0 0.0 0.0 0.0 0.0 0.0 -0.7331289
000010 00 00 00 00 00 00 00 00 00 a7 00 00 00 00 00 00
       0.0 0.0 0.0 0.0 0.0 0.0 0.0 0.0 0.0 -0.7414599 0.0 0.0 0.0 0.0 0.0 0.0
000020 00 5c 00 8c 00 00 00 00 00 00 00 00 00 92 00 00
       0.0 0.7664529 0.0 -0.96639717 0.0 0.0 0.0 0.0 0.0 0.0 0.0 0.0 0.0 -0.9164111 0.0 0.0
000030 00 9b 00 00 00 00 00 00 00 00 00 00 00 00 00 00
       0.0 -0.84143203 0.0 0.0 0.0 0.0 0.0 0.0 0.0 0.0 0.0 0.0 0.0 0.0 0.0 0.0
000040 8c 00 00 00 00 00 00 00 00 00 00 00 00 00 00 00
       -0.96639717 0.0 0.0 0.0 0.0 0.0 0.0 0.0 0.0 0.0 0.0 0.0 0.0 0.0 0.0 0.0
000050 00 00 00 00 00 00 5f 00 00 00 00 99 00 00 00 00
       0.0 0.0 0.0 0.0 0.0 0.0 0.791446 0.0 0.0 0.0 0.0 -0.85809404 0.0 0.0 0.0 0.0
000060 00 00 00 00 00 00 00 00 00 00 00 00 00 00 00 00
       0.0 0.0 0.0 0.0 0.0 0.0 0.0 0.0 0.0 0.0 0.0 0.0 0.0 0.0 0.0 0.0
000070 00 99 00 a2 00 00 00 00 00 00 00 00 00 00 92 6e
       0.0 -0.85809404 0.0 -0.78311497 0.0 0.0 0.0 0.0 0.0 0.0 0.0 0.0 0.0 0.0 -0.9164111 0.9164111
000080 00 00 00 00 00 00 00 00 62 00 00 00 00 00 9e 00
       0.0 0.0 0.0 0.0 0.0 0.0 0.0 0.0 0.816439 0.0 0.0 0.0 0.0 0.0 -0.816439 0.0
000090 9b 00 00 00 00 00 00 00 00 a3 00 00 00 00 00 00
       -0.84143203 0.0 0.0 0.0 0.0 0.0 0.0 0.0 0.0 -0.77478397 0.0 0.0 0.0 0.0 0.0 0.0
0000a0 00 00 00 00 00 00 00 00 00 00 00 00 94 00 00 00
       0.0 0.0 0.0 0.0 0.0 0.0 0.0 0.0 0.0 0.0 0.0 0.0 -0.8997491 0.0 0.0 0.0
0000b0 00 00 00 00 00 00 97 00 00 00 00 00 00 00 00 00
       0.0 0.0 0.0 0.0 0.0 0.0 -0.87475604 0.0 0.0 0.0 0.0 0.0 0.0 0.0 0.0 0.0
0000c0 00 00 00 00 00 00 00 00 00 00 00 00 8c 00 00 a3
       0.0 0.0 0.0 0.0 0.0 0.0 0.0 0.0 0.0 0.0 0.0 0.0 -0.96639717 0.0 0.0 -0.77478397
0000d0 00 a1 00 00 00 00 00 00 00 00 00 00 00 00 00 00
       0.0 -0.791446 0.0 0.0 0.0 0.0 0.0 0.0 0.0 0.0 0.0 0.0 0.0 0.0 0.0 0.0
0000e0 00 00 00 00 00 00 00 00 00 00 00 00 00 00 00 a5
       0.0 0.0 0.0 0.0 0.0 0.0 0.0 0.0 0.0 0.0 0.0 0.0 0.0 0.0 0.0 -0.7581219
0000f0 00 00 00 00 00 00 00 00 00 00 00 63 00 00 00 00
       0.0 0.0 0.0 0.0 0.0 0.0 0.0 0.0 0.0 0.0 0.0 0.82477 0.0 0.0 0.0 0.0

sequential_2/dense_8/MatMul i1 [100, 714] scale=0.001983644 zero_point=0
000000 00 00 00 00 00 00 d1 00 00 00 d1 00 00 00 00 00
       0.0 0.0 0.0 0.0 0.0 0.0 -0.09323127 0.0 0.0 0.0 -0.09323127 0.0 0.0 0.0 0.0 0.0
000010 00 cd 00 00 d5 00 00 00 00 00 00 d0 00 00 00 d3
       0.0 -0.101165846 0.0 0.0 -0.08529669 0.0 0.0 0.0 0.0 0.0 0.0 -0.09521491 0.0 0.0 0.0 -0.089263976
000020 00 00 00 cd 00 00 00 00 00 00 00 00 d2 00 00 00
       0.0 0.0 0.0 -0.101165846 0.0 0.0 0.0 0.0 0.0 0.0 0.0 0.0 -0.091247626 0.0 0.0 0.0
000030 00 00 00 00 00 00 00 00 00 00 d0 00 d0 00 00 00
       0.0 0.0 0.0 0.0 0.0 0.0 0.0 0.0 0.0 0.0 -0.09521491 0.0 -0.09521491 0.0 0.0 0.0
000040 00 00 00 00 00 00 00 d4 00 00 00 00 cd 00 00 00
       0.0 0.0 0.0 0.0 0.0 0.0 0.0 -0.08728033 0.0 0.0 0.0 0.0 -0.101165846 0.0 0.0 0.0
000050 00 00 00 00 00 00 00 00 00 00 00 00 00 00 00 d4
       0.0 0.0 0.0 0.0 0.0 0.0 0.0 0.0 0.0 0.0 0.0 0.0 0.0 0.0 0.0 -0.08728033
000060 d5 00 00 d8 00 ce 00 00 00 00 00 00 00 00 00 00
       -0.08529669 0.0 0.0 -0.07934576 0.0 -0.099182196 0.0 0.0 0.0 0.0 0.0 0.0 0.0 0.0 0.0 0.0
000070 00 00 00 d6 00 00 00 00 00 d5 00 00 00 00 00 00
       0.0 0.0 0.0 -0.08331305 0.0 0.0 0.0 0.0 0.0 -0.08529669 0.0 0.0 0.0 0.0 0.0 0.0
000080 00 00 00 00 00 00 00 00 00 00 00 d3 00 00 00 00
       0.0 0.0 0.0 0.0 0.0 0.0 0.0 0.0 0.0 0.0 0.0 -0.089263976 0.0 0.0 0.0 0.0
000090 00 00 00 00 00 00 00 00 00 00 00 00 cc 00 00 00
       0.0 0.0 0.0 0.0 0.0 0.0 0.0 0.0 0.0 0.0 0.0 0.0 -0.10314949 0.0 0.0 0.0
0000a0 00 00 00 00 00 d1 00 00 00 00 00 00 00 00 00 d2
       0.0 0.0 0.0 0.0 0.0 -0.09323127 0.0 0.0 0.0 0.0 0.0 0.0 0.0 0.0 0.0 -0.091247626
0000b0 d2 d3 d2 00 00 cf d6 00 00 00 00 00 00 00 00 00
       -0.091247626 -0.089263976 -0.091247626 0.0 0.0 -0.09719855 -0.08331305 0.0 0.0 0.0 0.0 0.0 0.0 0.0 0.0 0.0
0000c0 cd 00 00 00 d1 00 00 00 00 00 00 00 00 00 cd ce
       -0.101165846 0.0 0.0 0.0 -0.09323127 0.0 0.0 0.0 0.0 0.0 0.0 0.0 0.0 0.0 -0.101165846 -0.099182196
0000d0 00 00 d3 00 00 00 00 00 d3 d5 00 00 00 00 00 00
       0.0 0.0 -0.089263976 0.0 0.0 0.0 0.0 0.0 -0.089263976 -0.08529669 0.0 0.0 0.0 0.0 0.0 0.0
0000e0 cf 00 00 d2 d6 00 d1 00 00 00 cd 00 d1 00 00 00
       -0.09719855 0.0 0.0 -0.091247626 -0.08331305 0.0 -0.09323127 0.0 0.0 0.0 -0.101165846 0.0 -0.09323127 0.0 0.0 0.0
0000f0 00 00 00 00 00 00 00 00 00 00 00 d6 00 00 00 00
       0.0 0.0 0.0 0.0 0.0 0.0 0.0 0.0 0.0 0.0 0.0 -0.08331305 0.0 0.0 0.0 0.0

sequential_2/dense_9/MatMul i1 [75, 100] scale=0.006945211 zero_point=0
000000 00 00 00 00 00 00 00 2e 00 e1 00 00 00 00 00 e5
       0.0 0.0 0.0 0.0 0.0 0.0 0.0 0.3194797 0.0 -0.21530154 0.0 0.0 0.0 0.0 0.0 -0.1875207
000010 00 24 00 00 00 00 00 00 00 00 00 00 00 00 00 00
       0.0 0.2500276 0.0 0.0 0.0 0.0 0.0 0.0 0.0 0.0 0.0 0.0 0.0 0.0 0.0 0.0
000020 00 31 00 00 00 00 00 00 00 00 00 00 00 00 00 00
       0.0 0.34031534 0.0 0.0 0.0 0.0 0.0 0.0 0.0 0.0 0.0 0.0 0.0 0.0 0.0 0.0
000030 00 00 00 00 00 00 00 00 37 00 1e 00 00 00 00 46
       0.0 0.0 0.0 0.0 0.0 0.0 0.0 0.0 0.38198662 0.0 0.20835634 0.0 0.0 0.0 0.0 0.48616478
000040 00 00 00 00 00 00 00 00 00 00 00 00 00 00 00 00
       0.0 0.0 0.0 0.0 0.0 0.0 0.0 0.0 0.0 0.0 0.0 0.0 0.0 0.0 0.0 0.0
000050 00 00 00 00 00 1e 00 20 00 24 00 00 00 00 00 00
       0.0 0.0 0.0 0.0 0.0 0.20835634 0.0 0.22224675 0.0 0.2500276 0.0 0.0 0.0 0.0 0.0 0.0
000060 00 00 00 00 00 00 00 00 00 00 00 00 00 00 00 00
       0.0 0.0 0.0 0.0 0.0 0.0 0.0 0.0 0.0 0.0 0.0 0.0 0.0 0.0 0.0 0.0
000070 00 00 00 00 00 2c 00 00 00 00 00 00 00 00 00 00
       0.0 0.0 0.0 0.0 0.0 0.3055893 0.0 0.0 0.0 0.0 0.0 0.0 0.0 0.0 0.0 0.0
000080 00 00 00 00 00 31 00 00 00 00 00 00 00 00 00 00
       0.0 0.0 0.0 0.0 0.0 0.34031534 0.0 0.0 0.0 0.0 0.0 0.0 0.0 0.0 0.0 0.0
000090 00 00 00 00 00 00 00 00 00 00 00 00 00 00 00 00
       0.0 0.0 0.0 0.0 0.0 0.0 0.0 0.0 0.0 0.0 0.0 0.0 0.0 0.0 0.0 0.0
0000a0 00 00 00 00 00 2e 00 00 00 00 00 00 00 00 00 00
       0.0 0.0 0.0 0.0 0.0 0.3194797 0.0 0.0 0.0 0.0 0.0 0.0 0.0 0.0 0.0 0.0
0000b0 00 00 de 00 00 00 00 00 d3 e4 00 00 00 42 00 e0
       0.0 0.0 -0.23613717 0.0 0.0 0.0 0.0 0.0 -0.31253448 -0.1944659 0.0 0.0 0.0 0.45838392 0.0 -0.22224675
0000c0 00 00 00 00 00 d7 00 00 00 00 00 25 00 00 00 de
       0.0 0.0 0.0 0.0 0.0 -0.28475365 0.0 0.0 0.0 0.0 0.0 0.25697282 0.0 0.0 0.0 -0.23613717
0000d0 00 37 00 00 00 00 00 00 00 00 00 00 00 00 00 00
       0.0 0.38198662 0.0 0.0 0.0 0.0 0.0 0.0 0.0 0.0 0.0 0.0 0.0 0.0 0.0 0.0
0000e0 00 00 00 00 1c 00 00 1a 00 00 00 00 00 00 00 00
       0.0 0.0 0.0 0.0 0.1944659 0.0 0.0 0.18057549 0.0 0.0 0.0 0.0 0.0 0.0 0.0 0.0
0000f0 00 00 00 00 00 00 00 00 00 00 00 00 00 00 00 d9
       0.0 0.0 0.0 0.0 0.0 0.0 0.0 0.0 0.0 0.0 0.0 0.0 0.0 0.0 0.0 -0.27086323
